graph classification/NonlinearGCN/checkpoints/model.pt (torch, 29308 bytes, 30 tensors)

model.gin_layers.0.apply_func.mlp.0.weight f4 [32, 3]
000000 33 3f 3e 3e 42 47 9a 3e 7e 6b 56 3e b6 fc 97 3e
       0.18578796 0.3013249 0.20939443 0.2968499
000010 e9 94 bc 3e a2 24 8a 3e a7 7b e1 3e 1c 3b e1 3e
       0.3683236 0.26981074 0.44039652 0.4399041
000020 71 f2 e2 3d 3c 68 b4 be 53 cb 1d 3e f7 af bd 3e
       0.11081398 -0.35235775 0.15409593 0.37048313
000030 3e 42 b9 3e 2f eb 9d be 47 05 29 3d 69 06 89 3e
       0.3618335 -0.30843493 0.0412648 0.26762703
000040 74 88 99 3e dd fc da 3e 64 60 96 3e 9e e5 41 3e
       0.29986918 0.42771044 0.29370415 0.18935248
000050 4b 3d 80 3e e4 47 1d bf e4 3e 2c be d5 7d 32 bd
       0.25046763 -0.6143782 -0.16820866 -0.043577034
000060 0b 30 e5 be 28 14 02 bf 30 0a 15 3e 95 e7 6b 3e
       -0.44763216 -0.50812006 0.14554667 0.2303756
000070 39 01 f7 be c8 b8 01 bd d6 31 c3 3e d3 c8 b2 3e
       -0.4824312 -0.03167036 0.3812396 0.34918842
000080 7f ca fd 3e 3d 91 72 be e0 dd 01 3f 03 7d a2 be
       0.49568555 -0.23688217 0.5072918 -0.31736
000090 0b 0e f6 bd 7b 8e fc be 1d 75 b1 bd ec cf bb 3e
       -0.12014397 -0.49327454 -0.08664916 0.3668207
0000a0 ab 17 8f 3e 34 cb 8b be b3 70 62 be 5f a4 9c bd
       0.27947745 -0.2730347 -0.22113304 -0.07648539
0000b0 89 94 40 be 77 66 3a be 44 e7 2d 3f be f4 1f 3e
       -0.18806662 -0.1820315 0.6793101 0.15620705
0000c0 85 87 11 3f 49 80 5a be ca 6c c8 3e 98 36 44 be
       0.5684741 -0.21338 0.391455 -0.19161451
0000d0 6f 7f 38 be aa 48 34 be a0 27 a5 3d 01 42 ce be
       -0.18017362 -0.17605844 0.080641985 -0.40284732
0000e0 e6 96 f5 bc cd f4 9b be cd 8b b4 3e cd b9 00 bf
       -0.02997918 -0.30460206 0.3526291 -0.5028351
0000f0 5d 6c 2a be 2e fa fe be f6 c9 8f 3e ee 17 08 3f
       -0.166429 -0.49800247 0.2808377 0.53161514
000100 f4 88 80 be f4 fa ee be 79 a1 ed 3e 87 61 a7 3e
       -0.25104487 -0.46675837 0.46412256 0.32691595
000110 68 09 d4 3e 70 f0 ab be fb 7c d5 3e de 1f 93 3e
       0.41413426 -0.33581877 0.41696915 0.2873525
000120 3c 10 2e be 38 0b c2 bc 27 98 f2 3e 84 e9 13 3e
       -0.1699838 -0.02368699 0.47381708 0.14444548
000130 2a 8d 67 3e 82 36 31 3e 57 e3 64 be a0 55 df be
       0.22612444 0.1730595 -0.22352348 -0.43620014
000140 db 5a c9 3e d0 a4 01 3e 9f 0b 3a 3f ab 20 82 3e
       0.3932713 0.12660527 0.7267398 0.2541555
000150 c5 db b4 be 9e d1 c7 ba 33 22 27 be e2 21 3b 3e
       -0.3532392 -0.0015244966 -0.1632164 0.18274644
000160 55 e9 e6 3e ab 86 59 3e 45 5b b0 be 62 a8 a0 be
       0.45099893 0.21242778 -0.34444633 -0.31378466
000170 b5 c6 a3 be 6c 9d c3 be 88 71 1d 3f ea 3b 58 be
       -0.3198754 -0.3820604 0.6150136 -0.21116605

model.gin_layers.0.apply_func.mlp.0.bias f4 [32]
000000 c6 c1 5f 3e b9 98 c4 bd 53 09 11 3e 78 b9 51 3c
       0.21851262 -0.09599442 0.14163713 0.012800567
000010 1a 35 cd 3e 33 65 fb bd b3 2f a6 3e 2f 01 3c 3d
       0.40079576 -0.122751616 0.32458267 0.045899566
000020 44 7c 9e 3b b0 be a8 3d 35 b5 b1 3e 91 fe f5 3d
       0.004836591 0.08239496 0.34708562 0.12011445
000030 ca 7f c3 3e 1a ff cc 3c 98 4a de bd 8a 2a d9 3e
       0.38183433 0.025023986 -0.108540714 0.42415267
000040 69 54 0a bf d8 1f 81 3e 94 94 01 3f 48 38 be be
       -0.5403505 0.25219607 0.5061734 -0.37152314
000050 eb 43 81 bc 95 d0 70 3c b2 9c 99 3d 1b 5e 56 3e
       -0.015779456 0.014698167 0.075005904 0.20934336
000060 ff 7c 33 3e ba 26 40 3c df 1b 05 be 2d d9 41 3d
       0.17528151 0.011727983 -0.12998913 0.047326256
000070 f5 b3 3f be ac 55 be 3e fb 0a 8b be 26 e0 13 bf
       -0.18720992 0.37174737 -0.27156815 -0.577639

model.gin_layers.0.apply_func.mlp.1.weight f4 [32, 32]
000000 0c cc 98 3e b6 1b 66 3e 42 b4 6c 3d bd 7a 01 3e
       0.29843175 0.22471508 0.057789095 0.12644477
000010 a3 4d 61 3c 26 67 82 3e 83 2e bc 3d c1 49 91 bd
       0.01375142 0.2546932 0.09188559 -0.070941456
000020 bd 35 8b bd fd ce 41 3c 4e fe 05 3d d5 fc 85 3e
       -0.06797359 0.011829135 0.032713227 0.26169458
000030 e8 1e d0 bd cc 73 1d 3e 33 f8 a1 bd 5d 1b 3b bd
       -0.10162145 0.15376204 -0.07908668 -0.045680393
000040 b5 21 0b 3c ef d2 14 bd c6 1d 90 bd e5 69 d4 3d
       0.008491923 -0.036333974 -0.07036929 0.1037176
000050 0e b5 91 be 86 ed 10 3e 3a 0f 02 bd 1f 91 7d 3e
       -0.28458446 0.14153108 -0.031752802 0.2476239
000060 54 54 12 3e bb 08 51 3e 33 9d ff bd c0 12 36 3e
       0.14289981 0.20413487 -0.12481155 0.1778059
000070 5a e7 01 bc 4f 08 a1 3e 6c f1 b1 bd 16 f6 55 3d
       -0.007928694 0.3145165 -0.08688626 0.05223664
000080 c3 ab f4 bb a7 fe b6 bd 33 f8 b5 bd 93 b1 d3 bb
       -0.0074667647 -0.0893529 -0.08885231 -0.0064603775
000090 c7 0e 87 be 16 33 c1 3d 55 d3 69 3e c1 6f 32 be
       -0.26378462 0.09433572 0.22834523 -0.17425443
0000a0 39 d1 24 be f8 f8 94 be 64 46 81 3e 20 53 00 bd
       -0.16095437 -0.29096198 0.25249016 -0.031329274
0000b0 98 e0 ce be 31 5a da 3d f1 b8 88 3d 06 81 7a bd
       -0.40405726 0.10661734 0.066759 -0.061158203
0000c0 57 39 85 bc 27 d9 f9 3d 8b 18 68 be 42 b1 e6 3d
       -0.016262693 0.12199622 -0.22665612 0.11264278
0000d0 0d 95 f4 3d d5 9e 87 be 4b f7 75 3e c2 93 7b 3c
       0.11942492 -0.26488367 0.24020116 0.015355052
0000e0 47 ce 23 3e 27 c1 91 bb 0a 0a 05 be c3 ab 0f be
       0.15996657 -0.0044480744 -0.12992111 -0.14030366
0000f0 a2 7a 27 be de bc 96 bd 7b f6 5f 3e c7 93 09 3e
       -0.16355374 -0.07360242 0.21871369 0.13435279
000100 92 4f 07 3d 5a de 62 bb 9c c6 0b be 70 e0 76 ba
       0.03303487 -0.0034617395 -0.13649982 -0.0009417599
000110 11 51 3f 3d 4b bd 2f be 11 7e a6 be 2a 82 7c ba
       0.04670817 -0.17162053 -0.32518056 -0.0009632433
000120 f1 2c 89 3d eb 26 40 be e0 2f a7 be f8 bf d2 3d
       0.06698025 -0.18764846 -0.32653713 0.102905214
000130 01 30 c0 3d 75 26 5f bd 25 20 55 bd aa b1 ee bd
       0.09384156 -0.054480035 -0.05203261 -0.116549805
000140 d9 7b 1d be c0 c7 85 3e aa 3f 56 be 15 64 4c 3d
       -0.15379275 0.2612896 -0.20922723 0.049900133
000150 9a 31 5d be d9 2a 04 be e9 f5 8c be 1f 9e d8 bc
       -0.21600953 -0.1290697 -0.27531365 -0.026442586
000160 fb 0a 64 bd dd 5a 70 be 44 b9 3d be 5d 3a 09 be
       -0.055674534 -0.23472162 -0.18527704 -0.1340117
000170 5d fb 0d be 0a 36 11 be 72 2c af 3e 68 7c d3 bd
       -0.13865419 -0.1418077 0.34213597 -0.10326463
000180 31 3b dd be 3f 1a ae bd 77 0c 00 3d 38 3b b5 3d
       -0.43209222 -0.085011 0.031261887 0.08849186
000190 54 64 78 be cb 73 3b be 24 88 93 be 51 53 4d bd
       -0.24257022 -0.1830589 -0.28814805 -0.050128285
0001a0 0b a6 a3 3d 86 67 a8 39 b8 83 88 3d de 68 48 be
       0.079906546 0.00032120588 0.06665748 -0.19571254
0001b0 e1 d5 7b 3c db a5 ae bd 3f 71 98 3d 3c 7a e1 3b
       0.015370817 -0.08527728 0.07443475 0.0068810266
0001c0 c8 e2 90 bd b3 8b 30 3e c9 3b a6 bd fb 15 a5 3d
       -0.07074505 0.17240791 -0.08116872 0.08060833
0001d0 f3 9d b5 3c 32 3b b0 3d 84 1f fe bd d4 4d 03 be
       0.022170043 0.086050406 -0.12408355 -0.12822658
0001e0 08 39 82 3d 7d 59 69 be 57 8d 10 3e 35 12 da bd
       0.06358534 -0.22788043 0.14116417 -0.10648004
0001f0 82 52 1f 3e 02 a9 5d be 52 87 7c 3e ac 86 2f be
       0.15558818 -0.21646503 0.24660996 -0.17141217
000200 b6 84 f4 bb 71 8e 71 ba 19 54 79 3e 33 15 cb be
       -0.0074621094 -0.0009214646 0.24348487 -0.3966461
000210 db 18 04 be 49 5b 65 3d d6 42 0c 3d 0c 48 4a be
       -0.12900107 0.05599526 0.034243427 -0.19754046
000220 a7 b1 1e be 9c 18 a3 bc fc 44 f5 3b a5 ba a5 bd
       -0.15497456 -0.019909196 0.00748503 -0.0809224
000230 5c 01 e8 3d b9 8c 48 3d 53 a6 56 be 6e c5 6d be
       0.11328384 0.04896233 -0.20961885 -0.23219845
000240 d2 3c f8 3d 42 2d e0 bd 5b 1a 0e bd 20 e3 c2 be
       0.121209756 -0.10946132 -0.034693103 -0.38063908
000250 96 89 4f bc dd 1f 06 3d 10 31 28 3e 43 20 e4 bd
       -0.01266708 0.03274523 0.16424966 -0.11138966
000260 72 74 60 be 5a 7b c8 bd 99 91 52 bd dc 0a 47 be
       -0.2191942 -0.097891524 -0.051408384 -0.19437736
000270 05 13 86 be df 9b 8f be 82 16 c7 bd 29 dd 5c be
       -0.26186386 -0.28048608 -0.0972109 -0.21568741
000280 c0 ac 8c 3c 24 5b a3 bc 0a e3 ad 3d 9d e9 91 be
       0.017172217 -0.01994092 0.0849057 -0.28498545
000290 a0 49 bf 3d c5 35 f8 bd 02 e4 9b bd 28 e8 96 bd
       0.09340215 -0.12119631 -0.076118484 -0.07368499
0002a0 73 f9 1a bd 47 bf 40 3e cb ee 14 3e c5 4e d3 be
       -0.03783555 0.18822967 0.14544217 -0.41271034
0002b0 a8 5d 75 3d c1 ad 02 bd 26 48 30 be 09 0e 84 be
       0.05990377 -0.031903986 -0.17215022 -0.25791958
0002c0 a9 7d 40 bc 6d 3a 0c 3e f5 42 d2 3d 65 4e c3 bd
       -0.01174871 0.13694163 0.10266677 -0.09536437
0002d0 67 6b 54 3c ae ed 2d 3e 3b 60 b4 3d 28 26 3b be
       0.01296506 0.16985199 0.08807417 -0.18276274
0002e0 27 e9 2d bd f2 d9 51 be f3 9c f5 bc 7b e8 3d be
       -0.04245868 -0.20493296 -0.029982066 -0.18545716
0002f0 c2 56 73 be 89 a9 4d be 4a d9 2a 3d 06 8e ab be
       -0.23763564 -0.20084204 0.04171113 -0.33506793
000300 70 06 59 bd fd d6 e2 3d 93 e9 f7 3d d6 15 1a 3e
       -0.052984655 0.11076162 0.121050976 0.15047392
000310 76 a3 aa 3d a6 c9 2f 3e 23 a2 97 3b 1b c2 2b 3d
       0.08331959 0.17166767 0.0046274825 0.04193316
000320 a3 f2 10 bd 46 71 a6 3d 72 43 ad 3e 25 79 04 3c
       -0.035387646 0.08127074 0.3384052 0.008085524
000330 7f 14 d8 3d aa af c6 3e be 2d 57 3d 29 f7 0c be
       0.10550784 0.38805896 0.052533858 -0.13766159
000340 a2 b9 20 3c db eb 11 3c 94 2d 33 be c8 3e e3 3c
       0.009809883 0.00890633 -0.17497855 0.027739897
000350 dc 22 2f bc 5a 93 11 3e ef fc 63 3d 8c 2d bb 3d
       -0.0106894635 0.14216366 0.05566114 0.09139547
000360 37 97 2d 3e a5 d4 e8 3c c9 9d 53 3d ea b0 cc bd
       0.16952215 0.02842171 0.051664148 -0.09994681
000370 8a 3e 00 be 77 0e 43 be 54 c0 d5 b9 a3 7b 06 3d
       -0.12523857 -0.19048487 -0.00040769821 0.032832753
000380 b6 c8 82 bd 99 0e ac 3d 22 e7 a0 3d a5 41 65 bb
       -0.06385939 0.08401222 0.07856585 -0.0034981754
000390 da c0 fc 3d fa 89 6a 3d d1 ff 2e bd 23 e3 0f be
       0.12341471 0.05726049 -0.042724434 -0.1405149
0003a0 d3 e0 19 be e1 82 0c 3e fb ed 21 be df 0d c5 be
       -0.1502717 0.13721801 -0.15813439 -0.38487145
0003b0 e2 c6 1b 3e bc b8 e7 3d 96 54 95 be aa a9 72 bd
       0.15212587 0.11314532 -0.29166096 -0.059243836
0003c0 18 4b 2d bc 7c 19 53 3d f1 c3 9e bd 35 8d 61 be
       -0.010576986 0.051537976 -0.077522166 -0.22026522
0003d0 8a 67 9c 3d ec 97 40 3e 61 c8 35 3e cd 9f 67 be
       0.07636936 0.18807954 0.1775222 -0.22619553
0003e0 c0 ca 75 be 34 d6 bd bb 92 f2 01 bb 35 54 8a bd
       -0.24003124 -0.0057933573 -0.001982842 -0.067543425
0003f0 68 78 bb be 80 ed 32 be 3f 4e 50 3d 68 a8 9a be
       -0.366153 -0.17473412 0.05085587 -0.3020661

model.gin_layers.0.apply_func.mlp.1.bias f4 [32]
000000 49 80 ee 3c 18 02 51 bd 89 16 cc 3d 4f b3 9d bb
       0.029113906 -0.051027387 0.09965236 -0.004812635
000010 f1 cd d6 bd a4 d1 5a 3d 2f 4d db bd 18 bf bf bc
       -0.10488499 0.053422585 -0.10708081 -0.02340655
000020 73 c0 76 3d 91 2b 2d be f8 bf a6 bc 21 cd bb 3d
       0.060242128 -0.1691115 -0.02035521 0.091699846
000030 bc a2 0c 3d 3c 18 f2 bd c6 8a bf bb 0d 3e 06 be
       0.034334883 -0.118210286 -0.0058454005 -0.13109608
000040 9e 0c 0a 3d e0 8f 23 3e 04 db 24 3d 5e ab ca bd
       0.03370344 0.15972853 0.040247932 -0.09895967
000050 ff 1f 4c 3d 12 6d 8e bc 55 2a e9 bd 54 e2 d5 3b
       0.0498352 -0.017385993 -0.11385027 0.0065272246
000060 a4 26 09 be 48 36 dc 3d 52 ec 0f 3e db 80 07 bd
       -0.13393646 0.10752541 0.14054993 -0.03308187
000070 d5 e1 aa bd a3 91 93 bd 4b 6f 99 3d cb f2 9a 3d
       -0.08343855 -0.072055124 0.074919306 0.0756584

model.gin_layers.0.apply_func.norm_list.0.weight f4 [32]
000000 34 f0 96 3f a7 d6 8b 3f 79 bb 86 3f 3a ed 5e 3f
       1.1792054 1.0924882 1.0525962 0.8708073
000010 e6 2a 59 3f 0e d8 79 3f 87 5f 76 3f 62 a7 53 3f
       0.8483108 0.975953 0.96239513 0.8267728
000020 ce 1d 79 3f 8e 2e 5e 3f af 39 77 3f 78 d3 9a 3f
       0.97311103 0.86789787 0.96572393 1.2095785
000030 62 4f 6c 3f 20 f4 87 3f b1 59 7b 3f 44 08 7e 3f
       0.9230863 1.0621376 0.98183733 0.9923136
000040 84 8d 60 3f 33 36 88 3f 82 71 59 3f 54 77 80 3f
       0.87715936 1.064154 0.84938824 1.0036416
000050 b3 ae 64 3f e6 af 62 3f 45 e6 83 3f 6a d6 6e 3f
       0.8932907 0.8854965 1.0304648 0.9329592
000060 a3 db 4e 3f dc 37 96 3f 2f 0e 42 3f a4 51 98 3f
       0.8080389 1.1735797 0.7580289 1.1899915
000070 93 36 87 3f 9f 26 9b 3f 54 b4 a6 3f 47 42 98 3f
       1.056353 1.2121161 1.3023782 1.1895226

model.gin_layers.0.apply_func.norm_list.0.bias f4 [32]
000000 b2 d4 a1 bd d4 5f 0e bd 1f 7c 8f bd 6d 9f 6c bd
       -0.079018965 -0.034759358 -0.07006096 -0.057769228
000010 37 51 04 be a6 bc 40 be e8 71 2f be b5 a4 e1 bd
       -0.12921606 -0.18821964 -0.17133296 -0.110177435
000020 a1 a2 53 be af ca 26 be 0d b5 c1 be a2 32 b1 3d
       -0.20667507 -0.16288255 -0.37833443 0.086522356
000030 5f 8d 69 bd 09 e8 e8 3d 5c eb 45 bd f0 a6 f7 bd
       -0.057019588 0.11372382 -0.04832016 -0.12092388
000040 0f 36 a0 be 0e 0a 86 be 57 25 69 be 43 a2 c4 bd
       -0.31291243 -0.26179546 -0.2276815 -0.096012615
000050 0d aa 89 be f8 d5 54 3c 0f 70 82 bb 1a bb 24 bd
       -0.2688755 0.012990467 -0.0039806436 -0.040217496
000060 6f c5 af be dd dc 14 3e cf eb 02 bf 81 1c 84 bd
       -0.34330317 0.14537378 -0.51141065 -0.06450749
000070 5c bf 5b bc 93 9b 2c bd 7d 61 d1 3d 2d 85 d3 bb
       -0.013412323 -0.042140555 0.102236725 -0.006455085

model.gin_layers.0.apply_func.norm_list.0.running_mean f4 [32]
000000 97 8e 40 3f 48 03 21 3f 8a 7a 8b 3f ae 0e 35 be
       0.75217575 0.6289563 1.0896771 -0.17681381
000010 ad 33 f1 3e e5 a7 03 3f d6 eb 5b 3f 3f 07 4c bf
       0.47109738 0.5142806 0.8590673 -0.79698557
000020 8a 58 7f bf a4 06 38 be 83 55 95 3f 7d b4 bc 3e
       -0.99744475 -0.17971283 1.1666721 0.36856452
000030 a8 d9 8b be f6 48 31 3f 18 40 e3 be dd 43 73 3f
       -0.27314496 0.69251955 -0.44384837 0.95025426
000040 ab 6c f9 bd 4e 7b 23 be 28 8d 28 3e 61 a5 be be
       -0.1217893 -0.15965006 0.16460097 -0.3723555
000050 e8 bc 31 bf bb bb 94 3e 9f 4b 73 3f 3f 38 9b 3e
       -0.69428873 0.29049477 0.95037264 0.3031635
000060 d2 c8 92 3b 9f 7e d6 3e 70 35 4c bf 12 76 77 3f
       0.004479506 0.4189348 -0.7976904 0.96664536
000070 f4 c5 15 bf 92 f8 87 3f b3 1e 7f bf 71 2a bb be
       -0.5850518 1.0622733 -0.9965622 -0.36555818

model.gin_layers.0.apply_func.norm_list.0.running_var f4 [32]
000000 7f 93 15 3c f3 a5 d1 3b d8 06 6b 3c eb 36 1f 3e
       0.009129404 0.0063979565 0.014344893 0.15548293
000010 da 2e 6f 3e 49 e2 ca 3b 98 df 06 3c fb c8 f2 3d
       0.23357716 0.006191526 0.00823202 0.1185474
000020 04 1e 24 3d db 7d 87 3e 07 31 06 3c d9 78 9b 3e
       0.040067688 0.26463208 0.0081904 0.30365637
000030 5c 38 9f 3d 85 67 17 3d 4b 3b 43 3c a2 c0 c5 3e
       0.077744216 0.03696396 0.011915992 0.3862353
000040 df b3 a6 3e 51 b9 ab 3a 31 b2 fb 3d 01 74 7d 3e
       0.32559106 0.0013101493 0.12289847 0.24751283
000050 98 7a b7 3d 21 da b5 3e 3b ef 88 3c b2 e5 9a 3e
       0.0895893 0.35517982 0.016715636 0.3025337
000060 e4 67 29 3d 49 4a 8d 3b a5 1f 90 3d 44 a5 45 3e
       0.041358843 0.004311834 0.07037286 0.19301325
000070 76 8c 85 3d fb df 28 3d 82 1b 92 3b 9a 31 06 3f
       0.065209314 0.04122923 0.0044588456 0.52419436

model.gin_layers.1.apply_func.mlp.0.weight f4 [32, 32]
000000 9c 5c 50 3d d1 81 48 bd cd ae 3c be 41 13 29 be
       0.05086957 -0.048951928 -0.18426056 -0.16511251
000010 a4 39 29 3e 6f 0f 31 be 7a fc 39 bc 14 f4 24 3d
       0.16525894 -0.17291044 -0.011351699 0.040271834
000020 e8 35 0a bc 2f 3c 75 3d b9 43 d1 bd 1c 56 04 bc
       -0.008435704 0.05987185 -0.10217995 -0.008077171
000030 8b eb 84 bd b9 04 08 be b4 52 d0 3c 8d ce 09 bd
       -0.06490239 -0.13283052 0.02543006 -0.033644248
000040 92 eb 34 bd 5d f7 17 3e 6a 4b bc bd ed 68 cf 3e
       -0.04416997 0.14840455 -0.091940716 0.4050974
000050 5b 32 d1 bd f6 5d bf 3d b4 c8 4a 3e f3 bf 9f bc
       -0.10214683 0.093440935 0.19803125 -0.019500708
000060 33 fc b5 3d e7 8d a6 3e 02 2c 61 3e a8 8a 86 3e
       0.08885994 0.32530138 0.21989444 0.2627766
000070 a2 86 2f 3d a2 28 5a 3e a3 36 d5 bd 85 1b e7 bc
       0.042853005 0.21304563 -0.10410812 -0.028211365
000080 a0 2f e3 bd 7c 0d c8 bd 96 3a e4 bd 69 8b bf bd
       -0.11093068 -0.09768197 -0.11143987 -0.09352762
000090 51 33 35 be 3b ca 82 be 1c 9a 15 3e 1b 6a 16 be
       -0.17695357 -0.25544915 0.1460957 -0.14688914
0000a0 b5 c8 66 be 04 27 b4 be 70 2f 29 bd e5 20 22 be
       -0.22537501 -0.35186017 -0.041305006 -0.15832861
0000b0 02 47 b2 bd a8 86 01 be 2e ba e8 bd cf 71 07 bd
       -0.0870495 -0.12649024 -0.11363636 -0.03306752
0000c0 c6 ea 31 3e a4 04 5c 3d bd c9 88 3b d8 87 1b b8
       0.17374715 0.053715363 0.0041744397 -3.7081394e-05
0000d0 ca 9e 69 be 66 5c fd bd 98 cf 2c bd 50 17 0e be
       -0.2281448 -0.12371139 -0.042190164 -0.1387608
0000e0 e6 48 4c 3e 56 22 82 be 18 0a 3e be 50 9a 40 bd
       0.19949684 -0.2541682 -0.18558538 -0.047022164
0000f0 24 af 38 3e 4c e6 03 3e c6 67 0b be 27 e5 2e be
       0.18035561 0.1288082 -0.13613805 -0.17079602
000100 94 42 1d 3e ed e2 3e be 51 d1 10 3e 58 67 67 3e
       0.15357429 -0.18641253 0.14142348 0.22598016
000110 49 e6 57 bc a8 1c 4d 3e 8a a6 1a be d0 5d 33 3e
       -0.013177463 0.20030463 -0.15102592 0.17516255
000120 b9 5d 76 3e ba e7 57 3e 87 38 d3 3d 00 ae d2 3d
       0.2405919 0.2108449 0.10313516 0.10287094
000130 14 83 05 be 5c e6 c5 bd 4e b8 78 3d 41 2b 21 3b
       -0.13038284 -0.09663078 0.06072264 0.0024592432
000140 61 d7 07 3e 82 23 99 bc 0a 6d 25 3e 22 bd 59 be
       0.13265754 -0.01869369 0.16154876 -0.21263555
000150 ed 9d 99 3d 55 3c 6d be 57 75 11 3d 15 40 24 3e
       0.07500825 -0.23167546 0.035512295 0.1604007
000160 8d cd 65 be 50 0f 2f be 84 f3 07 be cd 2e fb 3d
       -0.22441693 -0.17095685 -0.13276488 0.12264786
000170 7a 93 e6 bd ea e0 0a bd 18 30 75 bd 12 4a cd ba
       -0.11258598 -0.0339059 -0.05986032 -0.0015662333
000180 87 8f 02 be c5 ea 72 3d 0f b6 ad bd 81 0e 3a 3e
       -0.12750064 0.059305925 -0.084819905 0.18169595
000190 4b b1 18 3e cf 53 00 3e 8e 5b d8 3e 60 07 4d bd
       0.14911382 0.1253197 0.4225735 -0.05005586
0001a0 46 47 7a 3e ab 28 96 bd eb b6 67 3c a0 1a 04 3e
       0.24441251 -0.073319755 0.014142732 0.12900782
0001b0 99 e8 c4 3e c5 2e 3e 3e d2 0f a6 3d 44 b2 ba 3c
       0.38458708 0.18572529 0.08108486 0.022790082
0001c0 0a e7 9a 3c 8e 80 9d 3c f7 f2 40 3e 6a 11 48 bd
       0.018908996 0.019226339 0.18842684 -0.048844732
0001d0 6a e5 41 3b f4 dd 80 3e 71 d0 65 bc 3d 71 94 3d
       0.0029586204 0.25169337 -0.014026747 0.07248161
0001e0 e1 11 59 bd a9 36 a1 bd ae c5 a0 3d 88 65 b7 3d
       -0.052995566 -0.07871754 0.078502044 0.089549124
0001f0 9e 32 2a 3d dc ba 5a 3d 24 6c dc 3c ab b8 5e bb
       0.04155218 0.05340086 0.026907034 -0.0033984582
000200 33 1e cd 3d c0 17 64 3e c7 dd b9 3d ed 39 90 3e
       0.10015526 0.22274685 0.09075504 0.28169194
000210 7f 5d 03 3e 3b 6e 0d be 5c 3f 4a bc ed 43 16 3e
       0.12828635 -0.13811581 -0.012344208 0.14674349
000220 69 88 b1 3e bf f9 85 bd c9 57 9d 3d f9 63 4d 3e
       0.34674385 -0.06541776 0.07682759 0.20057668
000230 c2 da dc bd b7 66 ca bd 56 dc 83 3e 5a f5 4d 3d
       -0.10783912 -0.098828726 0.2575404 0.050282814
000240 0e 75 72 3e ca a3 c3 3d e2 e7 c9 3d 40 59 5a 3e
       0.23677465 0.09552725 0.09858681 0.21323109
000250 ae 62 f5 3d 41 1a b6 bd f2 d8 79 3c 8e bd 0c 3d
       0.11981712 -0.08891726 0.015249478 0.03436046
000260 fc c0 d8 3d 94 03 d0 bd 93 9b 03 3e f7 7c a8 3c
       0.10583684 -0.101569325 0.12852316 0.0205674
000270 92 a6 ec 3d 18 be 95 3c 85 29 62 bb 6d ea 3f bd
       0.11555208 0.01827912 -0.003450961 -0.046854425
000280 5f 5c 7a 3e ea f9 96 3d be 11 01 3e 6d 69 06 3e
       0.244493 0.07371886 0.12604424 0.13126154
000290 5e 95 1e be df f4 aa 3d a6 84 dd 3c a4 3f 3d be
       -0.15486667 0.08347487 0.02704079 -0.18481308
0002a0 f0 d5 80 be 15 80 00 3e 5f 84 bd 3d 92 bc 26 3e
       -0.2516322 0.1254886 0.092537634 0.16282871
0002b0 2d ee 84 3d 7d cc 0b 3c 31 26 f0 bd 36 11 62 3e
       0.06490741 0.0085326405 -0.117260344 0.22076878
0002c0 b7 2e 1c 3c d7 de 1b 3e 51 1e a0 3d c0 18 9c 3d
       0.009532622 0.15221725 0.078182824 0.07621908
0002d0 bd d5 1e 3e ab 56 a1 bd 82 8d de 3d 36 a7 a9 3d
       0.15511222 -0.07877859 0.10866834 0.08283846
0002e0 c0 8a 8f bd 92 15 1a 3e 77 4f ee 3d 78 ea 86 bc
       -0.07008886 0.15047291 0.116362505 -0.016469225
0002f0 1e f6 3a 3d 9e 50 a1 3e 51 6e 24 3d 1c 3d 33 3e
       0.045644872 0.3150682 0.04014427 0.1750378
000300 47 0e 69 be 1f d2 78 bc b1 95 52 be 5c c3 7d be
       -0.22759353 -0.0151868155 -0.20564915 -0.24781555
000310 7c ec 72 3c 1e d8 52 be b6 05 3e be a9 b9 9a 3d
       0.01482689 -0.20590255 -0.18556866 0.07554943
000320 c2 0c cc bd 23 fe 8b be e5 2b 2d be f4 b6 60 bd
       -0.09963371 -0.27342328 -0.16911276 -0.054861978
000330 8c 09 14 be 88 df 04 3e ba 0e 67 3e 23 37 43 bd
       -0.14456767 0.12975895 0.22564211 -0.047660004
000340 e0 83 51 bd 8d 46 14 3e cf 7b fb bc 97 02 f4 3d
       -0.051151156 0.14480038 -0.030698685 0.119145565
000350 85 b7 f4 bd 04 1a 01 3d 18 30 f0 3d a5 02 0c bd
       -0.11949066 0.03151895 0.11727923 -0.03418221
000360 97 47 20 3e f3 22 ee 3d 48 d6 dc 3d b6 2c ca 3d
       0.1565231 0.1162776 0.107830584 0.09871809
000370 01 6f 8b bd 7f b1 89 bc 8a 1f 25 be 33 00 47 be
       -0.06808282 -0.01680827 -0.16125312 -0.1943367
000380 2a 4e 85 bd 27 d9 78 3c 77 03 80 3d 7c 6d 39 3e
       -0.06509049 0.015188492 0.06250661 0.18108171
000390 64 48 ab 3d 12 6e a7 bd 71 63 f8 3e 4d 98 27 bd
       0.08363417 -0.08175291 0.48513368 -0.04091673
0003a0 15 32 33 3e 35 89 51 3d 65 7f 48 3e a9 63 c1 3d
       0.17499574 0.05115624 0.19579847 0.09442837
0003b0 e8 7a 9b 3e 0a a0 9c 3d e0 38 c6 3d b4 44 ed 3d
       0.30367208 0.076477125 0.09678817 0.1158537
0003c0 ac 3e c8 3d 44 f2 18 3e 6e 04 c7 3c ab aa fa 3c
       0.09777579 0.14936167 0.024294104 0.030598959
0003d0 48 d2 d7 bd eb e7 ab 3e 56 25 c3 3d 5f 2f a3 3d
       -0.10538155 0.33575377 0.09528606 0.0796802
0003e0 b6 e9 7d bd fb 1b c6 bd b2 37 38 3e e5 bb 36 bd
       -0.061990462 -0.096733056 0.17989996 -0.044612784
0003f0 e1 b4 04 bd b7 53 29 3c 7d 7d 88 3d f0 fb 75 3d
       -0.032399062 0.010334901 0.0666456 0.06005472

model.gin_layers.1.apply_func.mlp.0.bias f4 [32]
000000 3f 7f e3 3d c1 8e 48 be f5 6d 0c be 44 37 bf 3d
       0.11108255 -0.19585706 -0.1371382 0.09336713
000010 88 43 d2 bc ec 2a 19 be 89 26 47 be e4 31 11 be
       -0.025666967 -0.1495778 -0.19448294 -0.14179188
000020 1e fe da 3d 70 40 5b bd 59 ca 36 be 26 45 6b bd
       0.10693 -0.05352825 -0.17850627 -0.057438992
000030 4b be 04 bb 1b 1b 88 be 40 79 b4 3d f4 3d 25 3e
       -0.0020255025 -0.2658318 0.08812189 0.16136914
000040 d8 6a c4 3d cb ff 37 be b6 06 55 bd 9a 3b 58 be
       0.09590691 -0.17968671 -0.052008353 -0.21116486
000050 db a6 23 3e 0b 8b c7 bd b8 a0 29 3e d0 4c 05 be
       0.15981619 -0.09743317 0.16565216 -0.13017583
000060 4e e9 5a 3d ee 27 e8 3d f6 cb 04 bd 4e b1 f4 3c
       0.053445153 0.11335741 -0.032421075 0.029869702
000070 c8 39 13 3e 79 8f d3 3c e1 39 c7 bd 19 17 d6 bd
       0.1437751 0.025825249 -0.097278364 -0.10453624

model.gin_layers.1.apply_func.mlp.1.weight f4 [32, 32]
000000 8e d1 30 bd 80 36 0c be 1a 90 db 3c f4 8c db bb
       -0.043168597 -0.13692665 0.026802111 -0.0067001525
000010 af ee 1f 3e 57 4d a2 3e 76 5e c4 bd bb d6 b2 bd
       0.15618394 0.3169963 -0.095883295 -0.08732363
000020 04 89 81 3c b0 4e ea 3d ff 59 ee bd fb a9 5e be
       0.015812404 0.1144079 -0.11638259 -0.2174453
000030 63 da 02 be a7 d4 59 39 1c 01 0a be 85 2e 22 3e
       -0.1277862 0.00020773952 -0.13476986 0.15838058
000040 d6 c0 22 be e3 f6 2e be 8e c7 88 3c ba e7 fc bd
       -0.15893874 -0.17086367 0.016696718 -0.12348886
000050 11 a7 14 3c 57 17 06 3b b0 9c 02 be e4 98 99 3d
       0.009073035 0.002046069 -0.12755084 0.07499865
000060 05 78 86 bd 7a 30 1b 3e 33 e3 9c 3e 8b 45 98 3e
       -0.06565861 0.15155211 0.3064209 0.29740557
000070 19 61 51 3d 68 21 4b 3d 64 06 5f be 59 44 75 3d
       0.05111799 0.049592406 -0.21779782 0.059879635
000080 a5 67 27 bc 7e db 24 3d e9 f8 41 3d 03 c3 5e be
       -0.010217582 0.040248387 0.04735652 -0.21754079
000090 e6 25 19 be df d4 c1 ba a8 a4 b1 3d 82 05 5e be
       -0.14955863 -0.0014788172 0.08673984 -0.21681789
0000a0 c9 39 b2 be 42 9d 90 3d 6f ec 13 bd 93 13 f4 3d
       -0.34809712 0.070612445 -0.036114153 0.11917796
0000b0 96 a3 2d bd 2e 08 9d be 00 17 a8 be eb b6 65 3d
       -0.042392336 -0.30670303 -0.32830048 0.056082647
0000c0 14 07 b8 be b2 72 93 bc 43 f5 b0 be 1e 1f 93 bd
       -0.359429 -0.017999027 -0.3456212 -0.071836695
0000d0 34 6f ba 3d 18 f2 3b 3e c6 8b 19 3e d7 1e 03 be
       0.091032416 0.1835407 0.14994726 -0.12804733
0000e0 2f fe b9 be 68 1d 2c 3c 3f f8 29 3e 6d cd b9 3d
       -0.3632674 0.010505058 0.16598605 0.09072385
0000f0 4a ae b7 be 64 a6 09 be eb 3d 12 3d 77 b7 51 bd
       -0.3587516 -0.13442379 0.03570358 -0.051200356
000100 98 04 cc bd 27 92 8e bd e8 df ec be d4 ba be bd
       -0.09961814 -0.0696147 -0.46264577 -0.093129784
000110 ce 66 05 bd f8 20 c5 bc 80 d6 a9 bc 70 ed c7 bd
       -0.032568745 -0.024063572 -0.020732164 -0.097620845
000120 32 96 35 3d 26 c5 10 3d fe a4 47 3e 67 c4 d0 3d
       0.04433269 0.035344265 0.19496533 0.10193711
000130 f1 d0 09 3e ff 93 64 3d e2 ec a1 bd 89 4e 12 be
       0.13458611 0.055805203 -0.0790651 -0.14287771
000140 80 b1 01 3e 02 7a a3 be 3f ae 47 be e1 cc 1e 3e
       0.12665367 -0.31929022 -0.19500063 0.15507843
000150 9c 14 f7 bd 65 34 30 3e 70 da 0d bf e7 7a 0d be
       -0.12064478 0.17207487 -0.55411434 -0.13816415
000160 3c 09 26 be c3 8b 50 be 1e 28 45 bd a9 6e 10 bd
       -0.1621446 -0.20365815 -0.04813396 -0.035261784
000170 bb 0a 03 bc b3 3f 88 3d 73 f4 91 bc d5 9a 58 3e
       -0.007998164 0.06652775 -0.017816758 0.21152814
000180 74 d1 2b bd aa f7 15 3d 36 61 15 bd 27 1a 4c be
       -0.041947797 0.036613144 -0.03646966 -0.19931851
000190 0c 71 8f 3e 7a c5 98 bd 11 92 bd 3d 17 de 88 be
       0.28015935 -0.07459541 0.092563756 -0.2673194
0001a0 2b 22 ea 3c 9a f0 3b 3e 48 be 98 bd c7 8e 99 bd
       0.028580746 0.18353501 -0.07458168 -0.07497936
0001b0 2b 4d 92 be dc 10 a1 bd 97 c4 88 be ec da 3b 3e
       -0.285745 -0.07864544 -0.26712486 0.18345231
0001c0 d0 8c db 3c 45 bf e4 bb 90 1d 0e bd 3b 4e 8d be
       0.026800543 -0.006980809 -0.03469616 -0.27598748
0001d0 b3 44 a4 bd ad ee a8 3d f3 0d 3d 3e 2d 62 7c 3d
       -0.08020916 0.08248649 0.18462352 0.061617065
0001e0 c4 3e 83 be 0c 9d 64 3c 99 34 9a bd 58 32 f8 3c
       -0.25633824 0.0139534585 -0.075295635 0.030297443
0001f0 54 6f 27 3d 15 a0 f5 bd 24 17 3c 3e 36 b2 3f 3e
       0.040877655 -0.11993424 0.18368202 0.18720326
000200 c6 3c 4d be ac e0 04 3e 8e 1e 10 3e c3 99 7a bc
       -0.20042714 0.1297633 0.14074156 -0.015295449
000210 99 81 8b be c9 72 18 3e 03 ff c1 be 5a 0f 74 bc
       -0.27247313 0.14887537 -0.3788987 -0.014896238
000220 12 f1 12 be f3 46 29 3e fc e9 58 be bf cd 3d be
       -0.14349774 0.16530971 -0.21183008 -0.18535517
000230 1c 52 c7 3d 6f 9a 37 be 4b 4f fb 3d 91 9b 92 bd
       0.09732458 -0.17930005 0.12270983 -0.07158578
000240 1d 5a 34 3d dc 4f 82 be 66 f9 1e bb 20 b1 c7 3c
       0.04403125 -0.25451553 -0.002425754 0.024376452
000250 c8 50 ad bc f7 d5 2b 3e 7e 5f c3 3d 25 37 13 3d
       -0.021156684 0.1678084 0.09539698 0.03594126
000260 e3 f8 81 bd 29 ab 26 be c9 44 5d 3e 20 80 99 3e
       -0.063462995 -0.1627623 0.2160827 0.29980564
000270 00 b2 f5 bd a0 20 ab bd 3c e7 c9 3b 20 3b 4b 3e
       -0.119968414 -0.08355832 0.0061615985 0.19846773
000280 c5 42 08 bd c0 71 81 3d a0 4b 1b be 4d be 70 be
       -0.0332668 0.06320524 -0.15165567 -0.23510094
000290 36 9f 5c bd 1e 27 4d 3a 5d c2 e1 3d 06 73 84 be
       -0.053862773 0.00078259583 0.110234 -0.25869006
0002a0 0e 5d 7d bd a1 d1 24 bd b1 6e ba bd 79 ec 19 3e
       -0.061856322 -0.04023898 -0.09103144 0.15031613
0002b0 f9 1a 30 be dd 1a 3a be 7e 1c d6 bd c4 ec 87 bc
       -0.17197789 -0.1817431 -0.10454653 -0.01659239
0002c0 44 3f 87 be 94 08 c2 bd 29 fc 37 be c5 c5 83 be
       -0.26415455 -0.094742924 -0.17967285 -0.25736824
0002d0 b4 12 9b bd 5f 95 e4 bd a8 2e da 3d a3 b6 8f be
       -0.07571927 -0.11161303 0.1065343 -0.28069028
0002e0 45 56 32 be e1 1e 3c bc 55 c8 51 bc 01 c1 59 3d
       -0.17415722 -0.0114819715 -0.012804111 0.05316258
0002f0 1a a7 65 be 9a f8 8c be d8 11 0d bd a7 0f c3 3d
       -0.22427025 -0.27533418 -0.034440845 0.0952447
000300 75 93 88 3e 61 3f cd bd 37 4c 91 be ac be 2c 3e
       0.26675 -0.10021854 -0.2837846 0.1686961
000310 ca ea 09 3d cf ea 2e be fd 8a 22 3e a6 68 40 3e
       0.033671178 -0.1708176 0.15873332 0.1878992
000320 7b a0 33 3e 96 82 06 be f2 f7 a8 3d 61 38 88 3d
       0.17541687 -0.13135752 0.08250417 0.066513784
000330 16 8c 2f bd 16 e1 6a 3d 76 d6 5a bd 0a 23 33 bd
       -0.042858206 0.057343565 -0.053427182 -0.043734588
000340 aa 1f 69 bd 5d a8 99 3d 76 a5 00 3e ee 7d 72 3e
       -0.056914963 0.07502816 0.12563118 0.23680851
000350 de 8b 0f 3e 89 bd 57 be f2 99 b5 be 3f a8 56 3e
       0.14018199 -0.21068396 -0.35469013 0.20962618
000360 08 6e 5b 3c be 7e 85 bc 8a 44 3a be 61 99 14 be
       0.013392933 -0.016295787 -0.18190208 -0.14511634
000370 d4 61 f2 bd 06 c1 17 3e 86 31 12 3e bb 59 c2 bd
       -0.118350655 0.14819726 0.14276704 -0.09489771
000380 8a 18 7f 3d 0e be 84 bd 6a 2b 1f 3d 48 0d 8c 3e
       0.06227926 -0.064815626 0.038859762 0.27353883
000390 89 c1 2f bd 25 57 e0 bc 27 a8 22 3e 6b a6 70 3e
       -0.04290918 -0.027385304 0.15884458 0.23500983
0003a0 76 c7 32 3e 17 66 f1 3d 2e 72 22 3d f1 73 02 3c
       0.17458901 0.1178705 0.03965967 0.007962213
0003b0 b5 d1 25 3e 66 51 7c 3e 75 e1 90 bd a1 48 0d 3e
       0.16193278 0.24640426 -0.070742525 0.13797237
0003c0 ae 9f 1a 3e f9 73 0c 3e a8 dd a4 3d 86 35 8a 3e
       0.15099975 0.13716115 0.0805009 0.2699396
0003d0 d8 65 3e 3b 70 28 80 bc e5 a3 21 3e 29 39 0d 3e
       0.0029052403 -0.015644282 0.15785177 0.13791336
0003e0 f7 e3 88 3d d8 fb d1 3d 20 b4 36 bd 82 24 9f 3d
       0.06684106 0.102531135 -0.044605374 0.07770635
0003f0 6f 52 a6 3e 01 2f ad 3e 7f a8 56 3e d7 9c 99 3d
       0.32484767 0.33824924 0.20962714 0.07500618

model.gin_layers.1.apply_func.mlp.1.bias f4 [32]
000000 ad f5 cc 3d 44 fd a1 3d 43 2c cc 3d 0e 8c 3d be
       0.100077964 0.07909635 0.0996938 -0.18510458
000010 da 03 ff 3d 6e 2f 80 bd fe b5 83 bd 67 95 4b 3e
       0.124519065 -0.062590465 -0.06431197 0.19881211
000020 42 d6 c7 bd 89 3c 12 3e f4 27 01 3e e3 79 d5 bd
       -0.09757663 0.14280905 0.12612897 -0.10423639
000030 f9 35 da 3d bd 87 aa 3d ed 73 8d bd d4 c1 85 be
       0.10654826 0.08326671 -0.06906877 -0.26124442
000040 48 70 13 3e 30 f0 28 3d b5 97 88 3d e9 48 d3 3d
       0.143983 0.041244686 0.06669561 0.10316641
000050 11 e7 c2 3d 06 2f d8 bc 13 e9 99 bd 7c 68 30 3e
       0.09516729 -0.02638961 -0.075151585 0.17227358
000060 55 11 4e be 5b 18 a0 3d a0 74 27 bd fc 1a 48 3e
       -0.20123799 0.078171454 -0.040882707 0.19541544
000070 c7 c2 55 3e 17 7e c0 bd 12 b7 2d 3e b5 3c 93 3d
       0.20875083 -0.0939905 0.16964367 0.07189313

model.gin_layers.1.apply_func.norm_list.0.weight f4 [32]
000000 c9 4a 70 3f 92 f6 3a 3f f2 f8 43 3f 05 49 99 3f
       0.93864113 0.73032486 0.76551735 1.1975409
000010 e0 6b 62 3f 53 92 64 3f a4 f7 80 3f 51 d6 93 3f
       0.88445854 0.89285773 1.0075574 1.1549779
000020 fc 12 86 3f f8 38 4f 3f 31 fc 51 3f fe 8c 4b 3f
       1.0474544 0.809463 0.8202544 0.7951201
000030 37 6f 8c 3f 70 15 82 3f 49 8d 81 3f 4e 7d 41 3f
       1.097144 1.0162792 1.0121242 0.75581825
000040 31 b9 90 3f 58 24 4c 3f dc 14 74 3f c2 2c 95 3f
       1.1306516 0.79742956 0.9534433 1.1654284
000050 e2 b8 32 3f 97 12 74 3f 61 14 6b 3f d5 11 87 3f
       0.6981336 0.95340866 0.9182797 1.0552317
000060 20 1f 75 3f 6c 53 5f 3f 3a ed 92 3f 3e 12 9c 3f
       0.9575062 0.87236667 1.1478646 1.2193067
000070 7c b6 7f 3f ae 74 9e 3f be 98 7b 3f 39 5b 4d 3f
       0.99887824 1.2379358 0.9827994 0.8021732

model.gin_layers.1.apply_func.norm_list.0.bias f4 [32]
000000 f9 74 b6 bc c6 70 05 be 99 2b 2a be 4a f4 e3 be
       -0.022272574 -0.13031301 -0.16618194 -0.44522315
000010 a8 a6 be be 41 8a 41 be bd 2d 0d be b5 8e e4 be
       -0.37236524 -0.18900396 -0.13786979 -0.44640127
000020 86 13 b1 be fd 88 47 be 7c 3b b4 bd 57 e8 15 be
       -0.34585208 -0.1948585 -0.08800408 -0.14639412
000030 da 49 b9 be 2a c4 b4 be 32 58 b5 be 2f ac 72 be
       -0.36189157 -0.3530591 -0.3541885 -0.23698495
000040 f2 ea f9 be ab f4 f9 bd b9 26 66 be 18 d3 49 be
       -0.48812062 -0.1220487 -0.22475709 -0.19709432
000050 ec df 75 be 54 57 bb bd cd 9f 9a be 78 09 cd be
       -0.240112 -0.09147516 -0.30200043 -0.40046287
000060 60 2d cf be bc 6e 7c be 3b cc 67 bd 38 77 a2 bd
       -0.40464306 -0.24651617 -0.056591254 -0.079328954
000070 d4 cf f3 be e5 6a b9 be 53 96 23 be ad 9f 36 be
       -0.47619498 -0.36214367 -0.15975313 -0.17834349

model.gin_layers.1.apply_func.norm_list.0.running_mean f4 [32]
000000 aa 89 38 3f 22 3e 02 c0 38 53 55 3f 50 e6 97 3f
       0.7208506 -2.0350423 0.83330107 1.1867161
000010 17 d1 ab 3f e0 25 84 3f e0 b9 4e bf 4e 99 87 3f
       1.3423184 1.0324059 -0.8075237 1.059366
000020 35 63 51 3f f2 7a 8f 3e 56 1a 87 3c 79 ca d6 bd
       0.81792 0.28023487 0.01649205 -0.10487837
000030 a7 ef 10 3f 16 82 9b 3f 59 f0 83 3e e1 40 b8 bf
       0.5661568 1.2149074 0.25769308 -1.43948
000040 7f 18 5d 3f 7d f3 2f bf c8 70 83 3f 33 dc 69 3f
       0.86365503 -0.6873091 1.0268793 0.9135162
000050 0e 6f 8a be 75 cc 03 bd c3 92 17 3f 4f fa 0e 3f
       -0.27037853 -0.032177407 0.59208316 0.5585069
000060 f3 b7 02 3e a6 86 01 3f 35 82 30 3f 5b d3 81 3f
       0.12765484 0.5059608 0.6894868 1.0142626
000070 1e a5 aa 3f 7f a6 60 3f 7d 07 14 3e c9 5d 34 3e
       1.333164 0.8775405 0.14455982 0.17613901

model.gin_layers.1.apply_func.norm_list.0.running_var f4 [32]
000000 c3 98 12 3f d5 6d 2b 3f 9b 4a 02 3f fe 77 38 3f
       0.57264346 0.66964465 0.5089509 0.72058094
000010 41 3a 94 3e e7 85 b1 3e 6d 5c 80 3e a0 0f 26 3f
       0.28950694 0.34672472 0.25070515 0.6486759
000020 44 53 f4 3e 6c b6 46 3e 29 ba b2 3f a1 b9 4c 3f
       0.47719777 0.19405526 1.3963062 0.7997075
000030 10 6e 1f 3f a2 61 02 3f 5d 23 fc 3e 3b c6 08 3f
       0.6227732 0.50930226 0.4924573 0.53427476
000040 80 6e 5a 3f 73 12 19 40 57 c1 02 3f fc ea 32 3f
       0.8532486 2.391751 0.51076263 0.6988981
000050 43 5d d6 3d d8 e5 07 3f 8f 87 08 3f 9f bb 15 3f
       0.10467007 0.5308509 0.53331846 0.5848941
000060 05 b1 5e 3f 95 7d ca 3e 19 b3 a4 3e 4b 57 e9 3e
       0.8698886 0.39548936 0.3216789 0.45574412
000070 a7 40 1c 3f 93 47 f3 3e 8c a1 17 3f 88 25 32 3f
       0.6103615 0.47515544 0.59230876 0.6958852

model.batch_norm.0.weight f4 [32]
000000 be 6a 5d 3f 14 86 3d 3f 07 9b 40 3f 13 9d 41 3f
       0.86491 0.7403271 0.7523655 0.756303
000010 43 f8 4d 3f 57 aa 57 3f ea 10 1b 3f 6d 1e 61 3f
       0.8045694 0.8424429 0.60572684 0.8793705
000020 91 fb 37 3f ce e3 56 3f d7 a1 20 3f 02 21 43 3f
       0.71868235 0.8394135 0.6274695 0.7622224
000030 bb b8 34 3f 71 9d 41 3f 77 ba 4e 3f 09 e9 4e 3f
       0.70594376 0.7563086 0.8075327 0.80824333
000040 75 59 41 3f 70 8a 45 3f a9 ed 59 3f 63 6c 37 3f
       0.75527126 0.77164364 0.85128266 0.7164976
000050 47 02 29 3f ed db 2e 3f 5f 39 5e 3f 6f 16 4e 3f
       0.660191 0.6830433 0.8680629 0.8050298
000060 05 df 10 3f 07 c5 1c 3f a6 d7 49 3f 24 74 47 3f
       0.565903 0.6123814 0.7884468 0.7791159
000070 94 18 2c 3f 30 29 4b 3f 1f fa 3e 3f 47 11 2f 3f
       0.67225003 0.7935972 0.74600405 0.6838574

model.batch_norm.0.bias f4 [32]
000000 95 a2 03 be 2c 28 a0 be d3 4a 35 be c6 2b 68 be
       -0.12854989 -0.3128065 -0.17704324 -0.22672948
000010 b4 12 06 be d3 3a 2c be dc 42 43 bf ad 76 08 be
       -0.13093072 -0.16819315 -0.76273894 -0.13326521
000020 e5 10 95 be 82 47 56 bd ca 71 aa be d4 a2 f4 bd
       -0.29114452 -0.05231429 -0.3328994 -0.119451195
000030 ae fa 0a bf db 23 8c be 59 43 23 be 1a 47 e5 bd
       -0.54288757 -0.27371106 -0.1594366 -0.11195202
000040 40 e2 42 be f9 79 3a be 28 de b0 bd 8c d8 29 be
       -0.1903162 -0.18210591 -0.08636123 -0.16586512
000050 95 b4 a6 be 39 9c a0 be 3b 72 b1 bd 2c 5e ed bd
       -0.32559648 -0.31369188 -0.08664366 -0.115902275
000060 28 f6 eb be 14 43 be be 13 ce 3e be b9 80 f9 bd
       -0.4608624 -0.37160552 -0.18633299 -0.12182755
000070 0a c9 76 be 56 6e 1a be c6 45 48 be 51 94 ab be
       -0.24100128 -0.15081152 -0.19557866 -0.33511594

model.batch_norm.0.running_mean f4 [32]
000000 64 74 7b 3f 9d 59 96 be 32 0c 26 bf f1 6d 2a bf
       0.98224473 -0.29365245 -0.6486236 -0.6657401
000010 39 cb 9d bf de 55 70 bf e5 d5 a1 3e fb c4 4c bf
       -1.2327644 -0.9388102 0.316085 -0.7998807
000020 33 71 bf 3e 47 b3 ab bf 2b 1a 03 be 5f f3 73 bf
       0.37391052 -1.3414086 -0.12802951 -0.9529323
000030 bb 5f 08 3f 9a 5e ca be b4 d2 bd 3e 7f 2c 2d 3f
       0.53271073 -0.395253 0.37074816 0.6764602
000040 3c 3e 30 3e 96 d4 55 bf 66 57 d8 3e c9 5a 33 bf
       0.1721124 -0.83527505 0.4225418 -0.700604
000050 6a 33 8a bf 8e 38 4d be 13 27 bd bf 3b c8 5c be
       -1.079694 -0.20041105 -1.477755 -0.21560757
000060 f7 e7 47 bf a4 2f 9f bf 77 2a 58 bf fd 9d bd bf
       -0.78088325 -1.2436414 -0.84439796 -1.4813839
000070 69 b4 cf be 9c 2e d1 be ff 63 e3 be ee f1 ae 3e
       -0.4056733 -0.40855873 -0.44412228 0.34168953

model.batch_norm.0.running_var f4 [32]
000000 d0 bb a3 3f 6e 12 7f 3e 4a 74 2f 3f 0c b0 27 3f
       1.2791691 0.24909374 0.6853682 0.65503
000010 a8 2e 1c 40 38 00 30 40 4e 4f 9c 3e b0 ce 15 40
       2.4403477 2.7500134 0.30529255 2.3407402
000020 b2 0f 37 3f df 09 11 40 bd 4f 15 3f aa 34 1e 40
       0.71508324 2.2662275 0.58324796 2.4719644
000030 5c af 43 3e d1 3f 08 3f ba 4f 28 40 36 61 06 40
       0.19109863 0.53222376 2.6298661 2.0996833
000040 b9 dd 20 3f 83 1b b3 3f 93 cf da 3f 0c 6a 51 3f
       0.6283832 1.3992771 1.7094597 0.8180244
000050 ef cc 5c 40 4f c0 17 3f cf 7f 31 40 ee b6 e5 3f
       3.4500082 0.59277815 2.7734258 1.7946451
000060 b1 5f 86 3f 5c 1e 68 3f 2b 2f 1c 40 75 93 69 40
       1.0497953 0.90671325 2.440379 3.649625
000070 48 4b 88 3f f9 d4 42 3f 62 7e 92 3f a9 80 18 3f
       1.0647974 0.7610622 1.1444819 0.5957132

model.batch_norm.1.weight f4 [32]
000000 90 a8 43 3f 9d c9 47 3f b8 46 f4 3e 3b c6 43 3f
       0.7642908 0.7804201 0.47710204 0.7647435
000010 f4 8b 5a 3f b9 e9 30 3f 2a 64 64 3f 78 ab 52 3f
       0.853698 0.6910663 0.8921534 0.8229289
000020 b7 11 66 3f 1a af 34 3f 3e f9 49 3f a7 e0 45 3f
       0.8987078 0.70579684 0.7889594 0.7729592
000030 e6 47 58 3f 4e b3 35 3f 9d d9 6d 3f 08 dc 5b 3f
       0.8448471 0.7097672 0.92910177 0.85882616
000040 35 b1 4e 3f 6c 46 51 3f d9 8e 40 3f e2 fa 46 3f
       0.80739146 0.8174808 0.7521797 0.77726567
000050 9c 25 45 3f 97 4f 33 3f f1 a5 51 3f 1e c2 6a 3f
       0.7701051 0.7004332 0.8189383 0.9170245
000060 47 b4 4a 3f 32 76 33 3f b4 e4 2f 3f 35 52 4e 3f
       0.7918133 0.70102227 0.6870835 0.8059419
000070 50 2f 4b 3f 77 d2 3c 3f 51 ca 3a 3f e0 ff 05 3f
       0.7936907 0.73758644 0.7296496 0.5234356

model.batch_norm.1.bias f4 [32]
000000 c1 49 63 be 1c 9a 10 be 42 ed ff be 57 3f 8d be
       -0.22196104 -0.14121288 -0.499857 -0.27587387
000010 a3 90 35 be dd d8 69 be bb 61 85 3d 3a c6 05 be
       -0.17730956 -0.22836633 0.06512781 -0.13063899
000020 5d 55 26 be 77 29 72 be 83 9d 09 be 38 5b 22 be
       -0.16243501 -0.2364863 -0.13438992 -0.1585511
000030 67 64 08 be ff 7f 65 be 89 13 36 be 78 73 ff bd
       -0.1331955 -0.22412108 -0.1778089 -0.12473196
000040 31 a6 f3 bd 58 1c d2 bd e2 99 59 be 96 4a 30 be
       -0.11896933 -0.102593124 -0.21250108 -0.17215952
000050 41 39 20 be fa d1 73 be 36 13 ff bd 5d af 65 bd
       -0.1564684 -0.23810568 -0.12454836 -0.056075443
000060 44 38 f6 bd 7b b1 86 be 98 3f c1 be 28 36 36 be
       -0.120224506 -0.26307282 -0.3774383 -0.17794096
000070 5b 0a 2e be 2b f8 6c be ab dd 59 be 37 2e d0 be
       -0.16996138 -0.23141544 -0.21275966 -0.4066026

model.batch_norm.1.running_mean f4 [32]
000000 43 0b 01 3e 83 6d c1 be b6 68 6c be b5 6f b1 be
       0.12601952 -0.37778863 -0.23086819 -0.34655538
000010 89 55 c4 3c 3a 01 3a bf 87 d9 60 3d ef 0e 89 3f
       0.023966568 -0.7265812 0.05489495 1.0707682
000020 4c 76 04 3f 54 f8 e1 be ee 28 15 bf 6e 20 1e bf
       0.51743007 -0.44134772 -0.5826558 -0.61768234
000030 8c 7c 01 bd 25 25 d8 be 89 57 67 3e f7 7b 2b 3e
       -0.031612918 -0.4221584 0.22591986 0.16746508
000040 62 a7 e9 be 3d 9a 15 3f 58 f4 e5 be 1f ff aa be
       -0.45635515 0.58438474 -0.44912982 -0.33397767
000050 f3 d0 28 bf 97 2f 24 bf a7 c4 04 bf a0 95 f4 3e
       -0.6594383 -0.64135116 -0.5186257 0.47770405
000060 b0 fa 25 bf 90 c2 00 bf e0 6e 30 3f da 82 8a be
       -0.64835644 -0.5029688 0.6891918 -0.27052957
000070 38 a1 3a 3f 15 07 3b bf c9 f3 b8 3e 82 b5 59 bc
       0.7290225 -0.7305768 0.36123493 -0.013287904

model.batch_norm.1.running_var f4 [32]
000000 24 3b 68 3f 2e 06 d7 40 70 1a 86 3e 29 00 01 40
       0.9071524 6.7195044 0.26192045 2.0156348
000010 52 21 4d 3f b7 3c ad 40 b6 55 c1 3f d1 c6 8d 40
       0.8012897 5.4136615 1.5104282 4.4305196
000020 7a 4e a5 40 32 23 b0 40 d2 b2 68 40 65 d3 0a 40
       5.1658297 5.5042963 3.6359143 2.1691525
000030 53 88 37 3f ac 4a d3 40 5b 0a 0e 40 ae a3 02 3f
       0.7169239 6.602865 2.219382 0.51031005
000040 b5 13 99 40 b6 d5 6e 40 27 f2 8b 40 9a 26 bf 40
       4.7836556 3.7317939 4.3733096 5.973462
000050 55 ce e5 40 11 9a ce 40 6f d6 cf 40 df 6b 9a 3f
       7.181437 6.456307 6.494926 1.206417
000060 c2 c3 83 40 09 12 82 40 95 17 6b 3f b2 90 14 40
       4.117646 4.0647016 0.9183286 2.3213315
000070 08 6f f4 3f 70 b2 45 40 5d c1 cc 3f 13 88 39 3f
       1.9096384 3.089016 1.599651 0.7247326

model.linear_prediction.0.weight f4 [2, 3]
000000 f5 69 06 3c bd a1 6e 3b a2 86 a7 3c 35 b0 84 bc
       0.008203973 0.0036412321 0.02044994 -0.016197303
000010 d7 31 68 ba 9c c3 6f bb
       -0.00088575244 -0.0036585098

model.linear_prediction.0.bias f4 [2]
000000 92 3f 12 be 91 71 33 3e
       -0.14282063 0.17523791

model.linear_prediction.1.weight f4 [2, 32]
000000 d2 26 b0 3c bf d3 fe 3c 9a 3a 22 bb cb 80 d7 bc
       0.021502886 0.031106828 -0.0024754168 -0.02630653
000010 2a e1 d1 3d 87 47 e5 3c dd e2 19 3b 80 9b cd bd
       0.10248025 0.027988208 0.0023481168 -0.10039425
000020 42 fa 9a 3c 25 f1 4d 3d a3 bc 09 3c 08 c5 0f 3d
       0.01891816 0.0502788 0.008406791 0.035100013
000030 40 51 33 3c 4c c1 0d bd 41 48 84 bd 86 e0 f8 3d
       0.0109446645 -0.03460817 -0.06459094 0.121521994
000040 b0 db 55 3b c4 d9 57 bd 0e fa 6e bd a6 69 72 3d
       0.0032632165 -0.05269791 -0.05834394 0.059182785
000050 42 2d f0 bc 4f 48 c2 3a 22 81 e2 bc 0c 1c 99 3d
       -0.029318456 0.0014822575 -0.027649466 0.07476053
000060 b5 88 f0 ba 30 77 72 3c 72 cb 4a bd 60 34 6a 3d
       -0.0018351289 0.014798924 -0.049510427 0.057178855
000070 b7 1a 4b bc e0 b1 cf bd d2 dd 1c 3c e2 93 22 3c
       -0.012396506 -0.10141349 0.00957437 0.009922953
000080 ac 99 4a bd 04 d4 39 bc c8 9a 3b 3d 96 ff 50 3b
       -0.04946296 -0.011342052 0.045801908 0.0031890622
000090 a3 ae 85 3d c2 42 d1 3d eb c0 be 3b e3 7c 73 3d
       0.0652745 0.10217811 0.0058213375 0.059445273
0000a0 34 c2 b9 bb 46 4c 63 bd 05 3e 46 bb e5 88 85 bc
       -0.005668903 -0.055492662 -0.003024937 -0.016300628
0000b0 fc d1 cb bb 92 e6 1b 3c 98 8e fb bd e2 38 65 3d
       -0.0062201004 0.009515421 -0.12283057 0.05596245
0000c0 f2 4a 82 3d 25 40 a8 3b 94 38 97 3d 74 e4 8e 3a
       0.06361951 0.0051345997 0.07383838 0.0010901825
0000d0 25 d3 40 bc 00 99 36 bc 13 1d f5 bd e3 8e 89 3d
       -0.011769091 -0.0111448765 -0.11968436 0.067167066
0000e0 11 21 93 ba 7a a1 b8 bb 1c da 75 bd de 4b 6c 3c
       -0.0011225065 -0.005634484 -0.06002246 0.014422385
0000f0 13 15 a7 bc 7d 89 b0 bd cb c1 be bc e7 5a 13 3d
       -0.020395791 -0.08619974 -0.023285767 0.035975363

model.linear_prediction.1.bias f4 [2]
000000 53 b1 8a be 66 2c a0 3e
       -0.27088413 0.31283873

model.linear_prediction.2.weight f4 [2, 32]
000000 19 4c 02 3d 63 1f 33 bd 60 a2 ba 3c 4f 18 dd bc
       0.031810854 -0.043731105 0.022782505 -0.02698913
000010 bb 27 ba 3d 6d fb 14 bc 0d 7e d7 3d d2 64 99 bd
       0.09089609 -0.009093148 0.10522089 -0.07489933
000020 0e eb 09 3e c2 af 2e bc f7 8e 29 bd c8 53 85 bc
       0.13468572 -0.010662021 -0.041396108 -0.016275302
000030 fa 97 e9 bb e5 e1 49 bc 8e c3 08 be ae 08 a9 bd
       -0.0071287127 -0.012321924 -0.13355848 -0.08253609
000040 97 2a 98 3d 4a f8 f2 bd 41 da 94 3c a5 c9 75 bd
       0.07429998 -0.11863764 0.018170478 -0.060006756
000050 17 d7 2a 3d e1 da 70 bc e7 f9 bc 3d 7e a8 f5 3d
       0.041709032 -0.014700622 0.092273526 0.11995028
000060 fb 18 52 bd 81 cb a1 bc d0 eb 1f bd 0d 57 26 3d
       -0.051293354 -0.019750359 -0.039043248 0.04061036
000070 8d 9b bd 3a 5a 2f f0 3b 4a d1 33 bd fe 37 0a 3b
       0.0014465913 0.0073298635 -0.043900765 0.0021090503
000080 ec 89 6a 3d 52 6a 49 bd 82 48 29 bb 05 4b af 3c
       0.05726044 -0.04917366 -0.0025830572 0.021398077
000090 bf e9 94 bc b5 2a 3c bc d7 ab 90 bd 55 24 8b bd
       -0.018177865 -0.0114847915 -0.07064026 -0.06794039
0000a0 bd 31 fa 3d a6 27 c4 bc d0 d8 a0 3c ac 5b 80 bd
       0.12216518 -0.023944687 0.019634634 -0.06267485
0000b0 87 d8 dd bd 25 11 ae bc ce 78 18 3e 65 41 92 3d
       -0.10832315 -0.02124841 0.14889833 0.07141379
0000c0 07 c0 a1 3d 36 99 e6 bd 65 15 70 bb 6b 1d 3a bd
       0.078979544 -0.112596914 -0.0036633846 -0.04543821
0000d0 f6 91 4d 3d 19 d4 a2 bc 19 68 7f 3d 98 ea a2 bd
       0.050188027 -0.019876527 0.062355135 -0.079549015
0000e0 18 f4 ad bd f3 b8 2b bc f4 3f f0 3c 82 01 72 bc
       -0.08493823 -0.010481107 0.02932737 -0.014770867
0000f0 d0 64 8b 3d db 1d 10 3c 99 9f 23 bd cd 00 c2 3a
       0.06806338 0.008796181 -0.039947126 0.0014801264

model.linear_prediction.2.bias f4 [2]
000000 f2 48 90 be f0 94 80 3e
       -0.28180653 0.2511363
